…
tivation= &#39;relu&#39;, input_shape= (1491, 257, 1))) model.add(Conv2D(16, (3, 3), activation= &#39;relu&#39;)) model.add(Flatten()) model.add(Dense(128, activation= &#39;relu&#39;)) model.add(Dense(1, activation= &#39;sigmoid&#39;)) . model.compile(&#39;Adam&#39;, loss= &#39;BinaryCrossentropy&#39;, metrics= [tf.keras.metrics.Recall(), tf.keras.metrics.Precision()]) model.summary() . Model: &#34;sequential&#34; _________________________________________________________________ Layer (type) Output Shape Param # ================================================================= conv2d (Conv2D) (None, 1489, 255, 16) 160 conv2d_1 (Conv2D) (None, 1487, 253, 16) 2320 flatten (Flatten) (None, 6019376) 0 dense (Dense) (None, 128) 770480256 dense_1 (Dense) (None, 1) 129 ================================================================= Total params: 770,482,865 Trainable params: 770,482,865 Non-trainable params: 0 _________________________________________________________________ . hist= model.fit(train, epochs= 2, validation_data= test) . Epoch 1/2 36/36 [==============================] - 816s 23s/step - loss: 13.7638 - recall: 0.9085 - precision: 0.8165 - val_lo
…
